trunk/random_pca_model.pkl_01.npy (npy, 672880 bytes, 1 tensors)

array f8 [50, 1682]
0.65818571147059 0.5120391095184486 0.42566437670666907 0.0013930049703415753 0.22679121826244858 -0.009423462926646605 0.1728209057903527 0.019626578450830916
-0.009544220582115615 0.022333972429179314 -0.03681103861802693 -0.008871064284366648 0.0023563253086492904 -0.016928452421048363 0.008733990195011596 -0.012513137806251894
-0.005629203748154702 -0.006718360175227539 -0.004553844078154039 0.0006556857028007362 -0.0061686070710879415 0.018817510691414328 0.011813600807866812 -0.007657239336568371
7.028495262913204e-05 0.008951976574743163 0.02873399758855994 0.0008670684141830401 0.03212277648395126 0.021437775872544182 -0.0007267725725191172 -0.0054433576130458764
-0.004451630980733588 -0.022154867304140652 -0.00026595878646593925 -0.011288038557404088 0.005466719937859248 -0.008437255432957792 0.005343907748968223 -0.0071686256026514605
-0.0014043745959814635 -0.0022045355709893063 0.0007313420477284055 0.00399540216856877 -0.016424596115606357 0.017456428923972457 0.004180440735430761 -0.006845031476701651
0.0043421908409618775 0.023095092459701105 0.0030540722998230407 -0.006044626637464835 -0.00851855393095805 -0.007032823663881576 0.00370877783418848 -0.0069568458842336825
-0.00018888976205869357 0.007653361068934104 -0.001357944527364456 -0.004488852451508047 -0.0003757389988078895 -0.003697935361034647 -0.001339961770934282 0.004819966988862534
0.00727085031245101 0.0006547048725474095 0.003705284449227165 0.0015391054839292843 -0.00586839575407454 0.0041777254536800425 -0.008043718871416503 -0.005755732943601959
0.004105653234692871 -0.003958892275289022 0.00099811286739209 0.0028295417201685226 -0.007406862111562484 0.003964782949813209 -0.003971056489853236 0.008218972009894226
0.00912340103466589 -0.0024232830476489525 -1.0816938014977354e-05 -0.006716147168932402 -0.0031928163376468144 -0.009920991220102928 -0.004605705518963196 -0.005138387323555906
0.002187070991002045 0.0073729728829475625 0.011063254100362819 -3.5845639126765516e-05 -0.004068115337367121 -0.00854260325131221 7.538799772408673e-05 -0.0034935842590588105
0.0006957993495234524 -0.0023036182649245154 5.76173706446377e-05 0.006129648869924657 -0.001061686969796571 0.004816413615098908 -0.0016832080779839637 0.0019653472281715117
-0.0030728901747748127 0.0013177375360785538 0.004396370138448943 0.0005845577185784383 0.016626961918380284 -0.0046179081841830494 0.0022320269077266727 -0.00846230949553889
-0.00972958178196659 -0.007288535403954806 -0.004330103481216054 0.002386963092089736 0.007747937384931503 0.003283470387040958 -0.0016320044045809853 0.012439813615833155
0.0013037028764948764 0.00782936941392595 0.0020756943763888926 -0.0047950842850772255 0.030537454985643253 -0.0019217303235916825 0.030537454985643253 -0.003959133724932571
0.0005583577960166749 -0.0009665439135419112 -0.0007931767686018665 -0.006408917740150022 -0.004091457300771154 0.002560626733712697 -0.0007619440939199728 0.00450915106858828
0.01647543519055052 0.007474277035551363 0.0019457177239508856 -0.005677583405229152 0.006995450983749062 -0.0014459032329993814 -0.004001506759712307 0.011395632867775606
-0.006436090824911708 0.0015566384443040893 -0.0075291569172124175 0.001988213435708467 0.0060065151042736605 0.00970813165200297 -0.0030996898747735037 0.007394348603386604
-0.005240908512154701 0.003140531758605269 -0.0009414988201754606 -0.002791288080809832 0.00848864076102929 -0.0044372679284004945 -0.0017580867402188687 0.0017700432717415665
-8.033278887782262e-05 0.002417247054569983 0.011839282997170414 -0.0036056105001307957 -0.005751671855406708 0.014106960552885456 -0.0013799247277124585 -0.0034180635571807983
0.014624856146702574 -0.0005430296487787256 0.004396146193577625 0.012933828082501013 -0.00016597267731119058 0.002406458857109386 -9.179257119856332e-05 -0.0035207566323261267
-0.0009635291882135515 0.011602619369380496 -0.005700880555828291 0.0009344838749872203 0.0007393543538849638 0.0037384756101111255 -0.0033774101003221156 0.004691744901602917
0.006598396412536942 0.009244495030443048 -0.003970677494580509 -0.000913111089340116 -0.001847125992067899 -0.0026552635597776263 0.00023754880605602048 -0.00887831672166517
-0.0004308332204342975 0.02278910489650428 -0.0014804945654110803 -0.0028825569790063045 -0.004539799360975348 0.0028824634542134603 0.0015491590630562467 -0.003584728010133242
-0.006732925090155944 0.004801442118129476 -0.0016049905013380602 0.0013227233985780695 -0.004618897220086351 -0.006306134973253185 -0.0020343592811079784 0.0015837104131771848
-0.0003425280743748967 -0.0027542065176212873 0.011809229873144802 -0.006904272064889715 0.0013745420919619646 0.005711858180171511 -0.0006864718860148316 0.0013113006200897736
-0.0011662077673272146 0.005915124114094684 -0.005184218034641907 0.0002754070239313258 -0.0007998385886495615 0.0013825572165140664 -0.002949845518080662 -0.0007250243475836728
-0.004401674752661535 -0.00397027689512874 -0.0028168208066735724 0.012314585570661642 0.002630271262468576 0.0033422462213051765 -0.0005903079611385132 -0.0026656323688463413
0.0010644299519930954 -0.004071871592082073 0.002633858985963964 -0.0002032000699014625 0.002668824531436003 -0.0019536171898769097 -0.0013075961151406503 0.002205564541547548
-0.00168945860665674 -0.0009398854930914533 0.004328027921617234 -0.006506389233088058 -0.006661492765683039 0.005746920266477899 0.00263596754782269 0.0037532575067704484
-0.0048530258826372805 0.036652456203509376 -0.000370369208334162 0.00778845052971137 0.0004937931355854817 -0.0005597607669118988 0.0044992368524500535 -0.0039638037012793
00000000: dcbd 2e7b db0f e53f 4bf3 b4d7 9f62 e03f
00000010: 65c0 41cc 153e db3f 452e 9cb2 afd2 563f
00000020: 0286 baa0 7e07 cd3f ab1c aec8 9b4c 83bf
00000030: 00a3 37d5 fe1e c63f fb95 5062 fd18 943f
00000040: dac2 209a eb8b 83bf b93e b184 b7de 963f
00000050: 6110 fe7d e5d8 a2bf ad46 db17 fe2a 82bf
00000060: 3ad9 7584 924d 633f 25c8 1436 b155 91bf
00000070: e55f 0252 20e3 813f d97f 2fed 7ca0 89bf
00000080: 1e76 03e0 a50e 77bf 86ff c313 b684 7bbf
00000090: df25 3036 0da7 72bf 75ac 3253 4a7c 453f
000000a0: a97a 1dda 4044 79bf 7909 0cc4 e544 933f
000000b0: 623a f1a8 ba31 883f 0588 7388 325d 7fbf
000000c0: f893 b14a be6c 123f 5c11 fcf4 6955 823f
000000d0: d26f b4ef 716c 9d3f bb5b bc3d 7f69 4c3f
000000e0: 941b e984 6572 a03f 8c12 16c9 c8f3 953f
000000f0: 8be1 1d37 9cd0 47bf c3fd da2e c64b 76bf
00000100: be26 9e97 df3b 72bf a8f2 12fa c3af 96bf
00000110: 9d7e 3a4a 0c6e 31bf 6c32 85e3 2e1e 87bf
00000120: c589 9775 4564 763f 346d 3841 8d47 81bf
00000130: 980b 3c50 7ee3 753f b79b 5448 d95c 7dbf
00000140: d73a 82bd 5f02 57bf e3c0 c405 3f0f 62bf
00000150: 2ef0 ad16 f1f6 473f 96b9 5f9a 7b5d 703f
00000160: ec88 aafc 9bd1 90bf 7a69 551d 19e0 913f
00000170: 6b5a dd83 821f 713f df04 5225 8909 7cbf
00000180: 7e8f 7afa 1dc9 713f 4303 406b 3da6 973f
00000190: 332b b794 da04 693f 6850 971b 40c2 78bf
000001a0: 1367 57f4 2c72 81bf 7993 283a 73ce 7cbf
000001b0: 63e6 30f0 de61 6e3f c8c4 e518 c87e 7cbf
000001c0: 4ab4 80b3 16c2 28bf 7ec7 ed77 2159 7f3f
000001d0: 7991 6dd5 a13f 56bf c7dc 9c27 e762 72bf
000001e0: 64bc 32b6 da9f 38bf a217 07ee 214b 6ebf
000001f0: 5fb9 fafe 34f4 55bf 6603 5c09 1abe 733f
00000200: 06bd e504 0ac8 7d3f 4b51 1002 1074 453f
00000210: 4f92 0471 8b5a 6e3f 3f0f fded 7937 593f
00000220: b3f0 7f7d 7509 78bf ada1 1fa3 a91c 713f
00000230: 3278 edab 3979 80bf dfd1 1dcc 5293 77bf
00000240: 4993 f2e5 16d1 703f 93af 9c0d 3337 70bf
00000250: dbf2 e187 635a 503f 7648 d3a4 fa2d 673f
00000260: 73f1 8f68 a856 7ebf aad7 ae51 603d 703f
00000270: 3962 125c f443 70bf 16f4 e9bf 1bd5 803f
00000280: 73d4 9328 4aaf 823f 200a 092e fed9 63bf
00000290: 6215 fba3 4caf e6be 6189 2107 6482 7bbf
000002a0: 4011 1338 d227 6abf c188 ace6 7451 84bf
000002b0: e364 43a9 6edd 72bf a943 2458 fd0b 75bf
000002c0: 431b 2ccc 9eea 613f 6a3f 8156 1f33 7e3f
000002d0: 8d1d 63d4 54a8 863f 4814 33c8 1ecb 02bf
000002e0: c41a 4965 baa9 70bf d45b b2cc c87e 81bf
000002f0: e899 5ef0 33c3 133f 6169 6ec4 939e 6cbf
00000300: a133 b3b9 c9cc 463f d5bb 87a3 09df 62bf
00000310: 09a1 e2c7 4535 0e3f aba8 ea16 671b 793f
00000320: cb5f 16b4 0965 51bf a0ad 5f2f 60ba 733f
00000330: 5a6e 6de9 e293 5bbf b7bd 3fc2 a119 603f
00000340: 9c64 c159 512c 69bf f69d d1e7 fd96 553f
00000350: 70b5 739f ed01 723f 3773 5724 a027 433f
00000360: 3864 af86 a806 913f f22d 084a 3aea 72bf
00000370: 87bd 5152 e648 623f 6179 41f4 af54 81bf
00000380: c05b 755c 1aed 83bf 88af 2153 95da 7dbf
00000390: 4f20 714d 71bc 71bf ed64 5a0d d38d 633f
000003a0: 7433 e01a 4dbc 7f3f 6f4f c0bd efe5 6a3f
000003b0: bcc7 da62 1fbd 5abf 4fcc 2f85 0b7a 893f
000003c0: adc0 f74d 205c 553f 6f1f a62c d808 803f
000003d0: 1a90 d1ee 0b01 613f eabb f9a2 02a4 73bf
000003e0: 909a dde9 3545 9f3f 5648 0f39 527c 5fbf
000003f0: 909a dde9 3545 9f3f 4abc e7dd 7337 70bf
00000400: de00 973c d84b 423f 9404 d93f f5ab 4fbf
00000410: 67d2 fa23 a6fd 49bf cd13 8cc1 3c40 7abf
00000420: 44f3 cb34 34c2 70bf dd8e 8302 06fa 643f
00000430: 1e79 7d7b a6f7 48bf 74fb f405 3078 723f
00000440: 85b8 52bd efde 903f f9ec dcf6 589d 7e3f
00000450: 83a5 767f eee0 5f3f ec7a bbb0 6041 77bf
00000460: d8b4 2213 43a7 7c3f 3d97 54c6 8eb0 57bf
00000470: ded8 ae4a e263 70bf 99e2 dff3 9756 873f
00000480: 099b b6f9 ba5c 7abf f159 70cd 0381 593f
00000490: d633 9dab e4d6 7ebf 55fb e1f5 9549 603f
000004a0: 1dfa f89e 499a 783f 26dc 9a5f dbe1 833f
000004b0: 1a04 7a54 8564 69bf 750b d456 8949 7e3f
000004c0: c696 93aa 7d77 75bf cc8f 3f26 2cba 693f
000004d0: baff 2852 ddd9 4ebf bc55 aa60 c1dd 66bf
000004e0: c21e a613 7e62 813f 8557 2d0a d02c 72bf
000004f0: d49a 6043 f3cd 5cbf e493 bc7d 1900 5d3f
00000500: dcf2 d9cd 0a0f 15bf 9c9f 76a1 55cd 633f
00000510: 435b 3faa 313f 883f 6600 c465 8389 6dbf
00000520: 05bf 42a8 108f 77bf 9dcc c331 1ce4 8c3f
00000530: a5d4 e4e4 d29b 56bf 3b20 33e6 3200 6cbf
00000540: 69ce def6 a2f3 8d3f 0098 874a 43cb 41bf
00000550: 6bde 1382 b101 723f cfec 0205 0d7d 8a3f
00000560: 918b 3171 1ec1 25bf 8500 e5c2 b5b6 633f
00000570: b04e 815d 1810 18bf 4bfc f9d2 8fd7 6cbf
00000580: 2d39 122d ab92 4fbf da57 ea35 1dc3 873f
00000590: ff1f bb78 ce59 77bf 7641 42d7 049f 4e3f
000005a0: 9d58 9262 273a 483f 4e2c 6fcf 26a0 6e3f
000005b0: 0f50 a23d f1aa 6bbf 52f0 9dae a637 733f
000005c0: 3128 c48c eb06 7b3f db1d 971e c7ee 823f
000005d0: 3209 b79f 8e43 70bf 1d20 1722 bbeb 4dbf
000005e0: 64bd 8f6e 6843 5ebf f321 d9c4 7dc0 65bf
000005f0: 6786 d8b4 d022 2f3f 4064 b47f cb2e 82bf
00000600: baeb 7f97 2e3c 3cbf f540 f1f0 0656 973f
00000610: 8bd5 61ef a441 58bf 089e 84fe 289d 67bf
00000620: 6599 921c 5398 72bf a081 91c8 f69c 673f
00000630: f5b6 c6e0 a461 593f 4cc9 3132 b85d 6dbf
00000640: c623 19d1 fb93 7bbf eaa0 ef4d adaa 733f
00000650: 183d ac6d d14b 5abf b859 446f e7ab 553f
00000660: 83cb 0fc8 43eb 72bf 19ab 9637 76d4 79bf
00000670: 34df 9452 5caa 60bf 2d5e 941b 90f2 593f
00000680: 7e6b 9de0 aa72 36bf 3e79 6d5d fd8f 66bf
00000690: bbd1 c400 702f 883f d8cd 8a6b a747 7cbf
000006a0: ddb3 3e55 3f85 563f 89e5 5441 5165 773f
000006b0: bd45 6826 8b7e 46bf 051c d351 fe7b 553f
000006c0: b00d 250e 6e1b 53bf 0ef7 f209 753a 783f
000006d0: b33c a0ee 0b3c 75bf 6105 2f29 900c 323f
000006e0: ab35 484a 8835 4abf 8fdc e781 dda6 563f
000006f0: 32b9 e840 462a 68bf ed62 4bee f1c1 47bf
00000700: 9cd4 c391 7d07 72bf 7cf3 ba16 2343 70bf
00000710: 1f91 c927 4d13 67bf ee7a 51b2 6338 893f
00000720: 9b41 a921 148c 653f e2e4 e6c6 3261 6b3f
00000730: f6c9 9eb1 dc57 43bf 3b86 1d7b 3cd6 65bf
00000740: 66d8 4af5 8a70 513f 55e1 24b5 aaad 70bf
00000750: 7bab 9f46 9a93 653f 543c 3e4f 43a2 2abf
00000760: d8d8 9942 eedc 653f 7ec4 0f3e 0801 60bf
00000770: 2a0a 42a3 746c 55bf 3bbe 6772 6711 623f
00000780: b094 aa5d 1aae 5bbf d54c 37ba 54cc 4ebf
00000790: 7a84 1226 44ba 713f c9de 898f 71a6 7abf
000007a0: 646d 23d9 1449 7bbf d14d 8e29 158a 773f
000007b0: f9ad 284d 0698 653f d169 d7c7 26bf 6e3f
000007c0: a1b8 3d37 c4e0 73bf 489e 6c59 1cc4 a23f
000007d0: cd33 22a3 c345 38bf ab69 fc44 c8e6 7f3f
000007e0: 1367 25af 3c2e 403f 6708 ff17 9d57 42bf
000007f0: aa31 36b2 ca6d 723f 4073 3c74 593c 70bf
